============================================================
       EMOTION CLASSIFIER - TRAINING REPORT
============================================================

1. DATASET INFORMATION
----------------------------------------
Classes (7): alegria, disgusto, enojo, miedo, seriedad, sorpresa, tristeza
Training Images:   12271
Validation Images: 3068
Batch Size:        32

2. NETWORK ARCHITECTURE & EFFICIENCY
----------------------------------------
Total Trainable Parameters: 1,525,031

Model Structure:
MobileNetV3(
  (features): Sequential(
    (0): Conv2dNormActivation(
      (0): Conv2d(3, 16, kernel_size=(3, 3), stride=(2, 2), padding=(1, 1), bias=False)
      (1): BatchNorm2d(16, eps=0.001, momentum=0.01, affine=True, track_running_stats=True)
      (2): Hardswish()
    )
    (1): InvertedResidual(
      (block): Sequential(
        (0): Conv2dNormActivation(
          (0): Conv2d(16, 16, kernel_size=(3, 3), stride=(2, 2), padding=(1, 1), groups=16, bias=False)
          (1): BatchNorm2d(16, eps=0.001, momentum=0.01, affine=True, track_running_stats=True)
          (2): ReLU(inplace=True)
        )
        (1): SqueezeExcitation(
          (avgpool): AdaptiveAvgPool2d(output_size=1)
          (fc1): Conv2d(16, 8, kernel_size=(1, 1), stride=(1, 1))
          (fc2): Conv2d(8, 16, kernel_size=(1, 1), stride=(1, 1))
          (activation): ReLU()
          (scale_activation): Hardsigmoid()
        )
        (2): Conv2dNormActivation(
          (0): Conv2d(16, 16, kernel_size=(1, 1), stride=(1, 1), bias=False)
          (1): BatchNorm2d(16, eps=0.001, momentum=0.01, affine=True, track_running_stats=True)
        )
      )
    )
    (2): InvertedResidual(
      (block): Sequential(
        (0): Conv2dNormActivation(
          (0): Conv2d(16, 72, kernel_size=(1, 1), stride=(1, 1), bias=False)
          (1): BatchNorm2d(72, eps=0.001, momentum=0.01, affine=True, track_running_stats=True)
          (2): ReLU(inplace=True)
        )
        (1): Conv2dNormActivation(
          (0): Conv2d(72, 72, kernel_size=(3, 3), stride=(2, 2), padding=(1, 1), groups=72, bias=False)
          (1): BatchNorm2d(72, eps=0.001, momentum=0.01, affine=True, track_running_stats=True)
          (2): ReLU(inplace=True)
        )
        (2): Conv2dNormActivation(
          (0): Conv2d(72, 24, kernel_size=(1, 1), stride=(1, 1), bias=False)
          (1): BatchNorm2d(24, eps=0.001, momentum=0.01, affine=True, track_running_stats=True)
        )
      )
    )
    (3): InvertedResidual(
      (block): Sequential(
        (0): Conv2dNormActivation(
          (0): Conv2d(24, 88, kernel_size=(1, 1), stride=(1, 1), bias=False)
          (1): BatchNorm2d(88, eps=0.001, momentum=0.01, affine=True, track_running_stats=True)
          (2): ReLU(inplace=True)
        )
        (1): Conv2dNormActivation(
          (0): Conv2d(88, 88, kernel_size=(3, 3), stride=(1, 1), padding=(1, 1), groups=88, bias=False)
          (1): BatchNorm2d(88, eps=0.001, momentum=0.01, affine=True, track_running_stats=True)
          (2): ReLU(inplace=True)
        )
        (2): Conv2dNormActivation(
          (0): Conv2d(88, 24, kernel_size=(1, 1), stride=(1, 1), bias=False)
          (1): BatchNorm2d(24, eps=0.001, momentum=0.01, affine=True, track_running_stats=True)
        )
      )
    )
    (4): InvertedResidual(
      (block): Sequential(
        (0): Conv2dNormActivation(
          (0): Conv2d(24, 96, kernel_size=(1, 1), stride=(1, 1), bias=False)
          (1): BatchNorm2d(96, eps=0.001, momentum=0.01, affine=True, track_running_stats=True)
          (2): Hardswish()
        )
        (1): Conv2dNormActivation(
          (0): Conv2d(96, 96, kernel_size=(5, 5), stride=(2, 2), padding=(2, 2), groups=96, bias=False)
          (1): BatchNorm2d(96, eps=0.001, momentum=0.01, affine=True, track_running_stats=True)
          (2): Hardswish()
        )
        (2): SqueezeExcitation(
          (avgpool): AdaptiveAvgPool2d(output_size=1)
          (fc1): Conv2d(96, 24, kernel_size=(1, 1), stride=(1, 1))
          (fc2): Conv2d(24, 96, kernel_size=(1, 1), stride=(1, 1))
          (activation): ReLU()
          (scale_activation): Hardsigmoid()
        )
        (3): Conv2dNormActivation(
          (0): Conv2d(96, 40, kernel_size=(1, 1), stride=(1, 1), bias=False)
          (1): BatchNorm2d(40, eps=0.001, momentum=0.01, affine=True, track_running_stats=True)
        )
      )
    )
    (5): InvertedResidual(
      (block): Sequential(
        (0): Conv2dNormActivation(
          (0): Conv2d(40, 240, kernel_size=(1, 1), stride=(1, 1), bias=False)
          (1): BatchNorm2d(240, eps=0.001, momentum=0.01, affine=True, track_running_stats=True)
          (2): Hardswish()
        )
        (1): Conv2dNormActivation(
          (0): Conv2d(240, 240, kernel_size=(5, 5), stride=(1, 1), padding=(2, 2), groups=240, bias=False)
          (1): BatchNorm2d(240, eps=0.001, momentum=0.01, affine=True, track_running_stats=True)
          (2): Hardswish()
        )
        (2): SqueezeExcitation(
          (avgpool): AdaptiveAvgPool2d(output_size=1)
          (fc1): Conv2d(240, 64, kernel_size=(1, 1), stride=(1, 1))
          (fc2): Conv2d(64, 240, kernel_size=(1, 1), stride=(1, 1))
          (activation): ReLU()
          (scale_activation): Hardsigmoid()
        )
        (3): Conv2dNormActivation(
          (0): Conv2d(240, 40, kernel_size=(1, 1), stride=(1, 1), bias=False)
          (1): BatchNorm2d(40, eps=0.001, momentum=0.01, affine=True, track_running_stats=True)
        )
      )
    )
    (6): InvertedResidual(
      (block): Sequential(
        (0): Conv2dNormActivation(
          (0): Conv2d(40, 240, kernel_size=(1, 1), stride=(1, 1), bias=False)
          (1): BatchNorm2d(240, eps=0.001, momentum=0.01, affine=True, track_running_stats=True)
          (2): Hardswish()
        )
        (1): Conv2dNormActivation(
          (0): Conv2d(240, 240, kernel_size=(5, 5), stride=(1, 1), padding=(2, 2), groups=240, bias=False)
          (1): BatchNorm2d(240, eps=0.001, momentum=0.01, affine=True, track_running_stats=True)
          (2): Hardswish()
        )
        (2): SqueezeExcitation(
          (avgpool): AdaptiveAvgPool2d(output_size=1)
          (fc1): Conv2d(240, 64, kernel_size=(1, 1), stride=(1, 1))
          (fc2): Conv2d(64, 240, kernel_size=(1, 1), stride=(1, 1))
          (activation): ReLU()
          (scale_activation): Hardsigmoid()
        )
        (3): Conv2dNormActivation(
          (0): Conv2d(240, 40, kernel_size=(1, 1), stride=(1, 1), bias=False)
          (1): BatchNorm2d(40, eps=0.001, momentum=0.01, affine=True, track_running_stats=True)
        )
      )
    )
    (7): InvertedResidual(
      (block): Sequential(
        (0): Conv2dNormActivation(
          (0): Conv2d(40, 120, kernel_size=(1, 1), stride=(1, 1), bias=False)
          (1): BatchNorm2d(120, eps=0.001, momentum=0.01, affine=True, track_running_stats=True)
          (2): Hardswish()
        )
        (1): Conv2dNormActivation(
          (0): Conv2d(120, 120, kernel_size=(5, 5), stride=(1, 1), padding=(2, 2), groups=120, bias=False)
          (1): BatchNorm2d(120, eps=0.001, momentum=0.01, affine=True, track_running_stats=True)
          (2): Hardswish()
        )
        (2): SqueezeExcitation(
          (avgpool): AdaptiveAvgPool2d(output_size=1)
          (fc1): Conv2d(120, 32, kernel_size=(1, 1), stride=(1, 1))
          (fc2): Conv2d(32, 120, kernel_size=(1, 1), stride=(1, 1))
          (activation): ReLU()
          (scale_activation): Hardsigmoid()
        )
        (3): Conv2dNormActivation(
          (0): Conv2d(120, 48, kernel_size=(1, 1), stride=(1, 1), bias=False)
          (1): BatchNorm2d(48, eps=0.001, momentum=0.01, affine=True, track_running_stats=True)
        )
      )
    )
    (8): InvertedResidual(
      (block): Sequential(
        (0): Conv2dNormActivation(
          (0): Conv2d(48, 144, kernel_size=(1, 1), stride=(1, 1), bias=False)
          (1): BatchNorm2d(144, eps=0.001, momentum=0.01, affine=True, track_running_stats=True)
          (2): Hardswish()
        )
        (1): Conv2dNormActivation(
          (0): Conv2d(144, 144, kernel_size=(5, 5), stride=(1, 1), padding=(2, 2), groups=144, bias=False)
          (1): BatchNorm2d(144, eps=0.001, momentum=0.01, affine=True, track_running_stats=True)
          (2): Hardswish()
        )
        (2): SqueezeExcitation(
          (avgpool): AdaptiveAvgPool2d(output_size=1)
          (fc1): Conv2d(144, 40, kernel_size=(1, 1), stride=(1, 1))
          (fc2): Conv2d(40, 144, kernel_size=(1, 1), stride=(1, 1))
          (activation): ReLU()
          (scale_activation): Hardsigmoid()
        )
        (3): Conv2dNormActivation(
          (0): Conv2d(144, 48, kernel_size=(1, 1), stride=(1, 1), bias=False)
          (1): BatchNorm2d(48, eps=0.001, momentum=0.01, affine=True, track_running_stats=True)
        )
      )
    )
    (9): InvertedResidual(
      (block): Sequential(
        (0): Conv2dNormActivation(
          (0): Conv2d(48, 288, kernel_size=(1, 1), stride=(1, 1), bias=False)
          (1): BatchNorm2d(288, eps=0.001, momentum=0.01, affine=True, track_running_stats=True)
          (2): Hardswish()
        )
        (1): Conv2dNormActivation(
          (0): Conv2d(288, 288, kernel_size=(5, 5), stride=(2, 2), padding=(2, 2), groups=288, bias=False)
          (1): BatchNorm2d(288, eps=0.001, momentum=0.01, affine=True, track_running_stats=True)
          (2): Hardswish()
        )
        (2): SqueezeExcitation(
          (avgpool): AdaptiveAvgPool2d(output_size=1)
          (fc1): Conv2d(288, 72, kernel_size=(1, 1), stride=(1, 1))
          (fc2): Conv2d(72, 288, kernel_size=(1, 1), stride=(1, 1))
          (activation): ReLU()
          (scale_activation): Hardsigmoid()
        )
        (3): Conv2dNormActivation(
          (0): Conv2d(288, 96, kernel_size=(1, 1), stride=(1, 1), bias=False)
          (1): BatchNorm2d(96, eps=0.001, momentum=0.01, affine=True, track_running_stats=True)
        )
      )
    )
    (10): InvertedResidual(
      (block): Sequential(
        (0): Conv2dNormActivation(
          (0): Conv2d(96, 576, kernel_size=(1, 1), stride=(1, 1), bias=False)
          (1): BatchNorm2d(576, eps=0.001, momentum=0.01, affine=True, track_running_stats=True)
          (2): Hardswish()
        )
        (1): Conv2dNormActivation(
          (0): Conv2d(576, 576, kernel_size=(5, 5), stride=(1, 1), padding=(2, 2), groups=576, bias=False)
          (1): BatchNorm2d(576, eps=0.001, momentum=0.01, affine=True, track_running_stats=True)
          (2): Hardswish()
        )
        (2): SqueezeExcitation(
          (avgpool): AdaptiveAvgPool2d(output_size=1)
          (fc1): Conv2d(576, 144, kernel_size=(1, 1), stride=(1, 1))
          (fc2): Conv2d(144, 576, kernel_size=(1, 1), stride=(1, 1))
          (activation): ReLU()
          (scale_activation): Hardsigmoid()
        )
        (3): Conv2dNormActivation(
          (0): Conv2d(576, 96, kernel_size=(1, 1), stride=(1, 1), bias=False)
          (1): BatchNorm2d(96, eps=0.001, momentum=0.01, affine=True, track_running_stats=True)
        )
      )
    )
    (11): InvertedResidual(
      (block): Sequential(
        (0): Conv2dNormActivation(
          (0): Conv2d(96, 576, kernel_size=(1, 1), stride=(1, 1), bias=False)
          (1): BatchNorm2d(576, eps=0.001, momentum=0.01, affine=True, track_running_stats=True)
          (2): Hardswish()
        )
        (1): Conv2dNormActivation(
          (0): Conv2d(576, 576, kernel_size=(5, 5), stride=(1, 1), padding=(2, 2), groups=576, bias=False)
          (1): BatchNorm2d(576, eps=0.001, momentum=0.01, affine=True, track_running_stats=True)
          (2): Hardswish()
        )
        (2): SqueezeExcitation(
          (avgpool): AdaptiveAvgPool2d(output_size=1)
          (fc1): Conv2d(576, 144, kernel_size=(1, 1), stride=(1, 1))
          (fc2): Conv2d(144, 576, kernel_size=(1, 1), stride=(1, 1))
          (activation): ReLU()
          (scale_activation): Hardsigmoid()
        )
        (3): Conv2dNormActivation(
          (0): Conv2d(576, 96, kernel_size=(1, 1), stride=(1, 1), bias=False)
          (1): BatchNorm2d(96, eps=0.001, momentum=0.01, affine=True, track_running_stats=True)
        )
      )
    )
    (12): Conv2dNormActivation(
      (0): Conv2d(96, 576, kernel_size=(1, 1), stride=(1, 1), bias=False)
      (1): BatchNorm2d(576, eps=0.001, momentum=0.01, affine=True, track_running_stats=True)
      (2): Hardswish()
    )
  )
  (avgpool): AdaptiveAvgPool2d(output_size=1)
  (classifier): Sequential(
    (0): Linear(in_features=576, out_features=1024, bias=True)
    (1): Hardswish()
    (2): Dropout(p=0.2, inplace=True)
    (3): Linear(in_features=1024, out_features=7, bias=True)
  )
)

3. TRAINING HISTORY
----------------------------------------
Epoch  | Train Loss |  Val Loss  | Train Acc  |  Val Acc   | Top-2 Acc 
-----------------------------------------------------------------------
  1    |   0.9229   |   1.0481   |   0.6700   |   0.6757   |   0.8465  
  2    |   0.6608   |   0.7195   |   0.7677   |   0.7539   |   0.8836  
…
